__________________________________________________________________________________________________
Layer (type)                    Output Shape         Param #     Connected to
==================================================================================================
input_1 (InputLayer)            (None, 300, 300, 3)  0
__________________________________________________________________________________________________
Conv (Conv2D)                   (None, 150, 150, 16) 432         input_1[0][0]
__________________________________________________________________________________________________
Conv/BatchNorm (BatchNormalizat (None, 150, 150, 16) 64          Conv[0][0]
__________________________________________________________________________________________________
activation_1 (Activation)       (None, 150, 150, 16) 0           Conv/BatchNorm[0][0]
__________________________________________________________________________________________________
expanded_conv/depthwise (Depthw (None, 150, 150, 16) 144         activation_1[0][0]
__________________________________________________________________________________________________
expanded_conv/depthwise/BatchNo (None, 150, 150, 16) 64          expanded_conv/depthwise[0][0]
__________________________________________________________________________________________________
activation_3 (Activation)       (None, 150, 150, 16) 0           expanded_conv/depthwise/BatchNorm
__________________________________________________________________________________________________
expanded_conv/project (Conv2D)  (None, 150, 150, 16) 256         activation_3[0][0]
__________________________________________________________________________________________________
expanded_conv/project/BatchNorm (None, 150, 150, 16) 64          expanded_conv/project[0][0]
__________________________________________________________________________________________________
expanded_conv/Add (Add)         (None, 150, 150, 16) 0           activation_1[0][0]
                                                                 expanded_conv/project/BatchNorm[0
__________________________________________________________________________________________________
expanded_conv_1/expand (Conv2D) (None, 150, 150, 64) 1024        expanded_conv/Add[0][0]
__________________________________________________________________________________________________
expanded_conv_1/expand/BatchNor (None, 150, 150, 64) 256         expanded_conv_1/expand[0][0]
__________________________________________________________________________________________________
activation_4 (Activation)       (None, 150, 150, 64) 0           expanded_conv_1/expand/BatchNorm[
__________________________________________________________________________________________________
expanded_conv_1/depthwise (Dept (None, 75, 75, 64)   576         activation_4[0][0]
__________________________________________________________________________________________________
expanded_conv_1/depthwise/Batch (None, 75, 75, 64)   256         expanded_conv_1/depthwise[0][0]
__________________________________________________________________________________________________
activation_5 (Activation)       (None, 75, 75, 64)   0           expanded_conv_1/depthwise/BatchNo
__________________________________________________________________________________________________
expanded_conv_1/project (Conv2D (None, 75, 75, 24)   1536        activation_5[0][0]
__________________________________________________________________________________________________
expanded_conv_1/project/BatchNo (None, 75, 75, 24)   96          expanded_conv_1/project[0][0]
__________________________________________________________________________________________________
expanded_conv_2/expand (Conv2D) (None, 75, 75, 72)   1728        expanded_conv_1/project/BatchNorm
__________________________________________________________________________________________________
expanded_conv_2/expand/BatchNor (None, 75, 75, 72)   288         expanded_conv_2/expand[0][0]
__________________________________________________________________________________________________
activation_6 (Activation)       (None, 75, 75, 72)   0           expanded_conv_2/expand/BatchNorm[
__________________________________________________________________________________________________
expanded_conv_2/depthwise (Dept (None, 75, 75, 72)   648         activation_6[0][0]
__________________________________________________________________________________________________
expanded_conv_2/depthwise/Batch (None, 75, 75, 72)   288         expanded_conv_2/depthwise[0][0]
__________________________________________________________________________________________________
activation_7 (Activation)       (None, 75, 75, 72)   0           expanded_conv_2/depthwise/BatchNo
__________________________________________________________________________________________________
expanded_conv_2/project (Conv2D (None, 75, 75, 24)   1728        activation_7[0][0]
__________________________________________________________________________________________________
expanded_conv_2/project/BatchNo (None, 75, 75, 24)   96          expanded_conv_2/project[0][0]
__________________________________________________________________________________________________
expanded_conv_2/Add (Add)       (None, 75, 75, 24)   0           expanded_conv_1/project/BatchNorm
                                                                 expanded_conv_2/project/BatchNorm
__________________________________________________________________________________________________
expanded_conv_3/expand (Conv2D) (None, 75, 75, 72)   1728        expanded_conv_2/Add[0][0]
__________________________________________________________________________________________________
expanded_conv_3/expand/BatchNor (None, 75, 75, 72)   288         expanded_conv_3/expand[0][0]
__________________________________________________________________________________________________
activation_8 (Activation)       (None, 75, 75, 72)   0           expanded_conv_3/expand/BatchNorm[
__________________________________________________________________________________________________
expanded_conv_3/depthwise (Dept (None, 38, 38, 72)   1800        activation_8[0][0]
__________________________________________________________________________________________________
expanded_conv_3/depthwise/Batch (None, 38, 38, 72)   288         expanded_conv_3/depthwise[0][0]
__________________________________________________________________________________________________
activation_9 (Activation)       (None, 38, 38, 72)   0           expanded_conv_3/depthwise/BatchNo
__________________________________________________________________________________________________
expanded_conv_3/squeeze_excite/ (None, 72)           0           activation_9[0][0]
__________________________________________________________________________________________________
expanded_conv_3/reshape (Reshap (None, 1, 1, 72)     0           expanded_conv_3/squeeze_excite/Av
__________________________________________________________________________________________________
expanded_conv_3/squeeze_excite/ (None, 1, 1, 24)     1752        expanded_conv_3/reshape[0][0]
__________________________________________________________________________________________________
expanded_conv_3/squeeze_excite/ (None, 1, 1, 24)     0           expanded_conv_3/squeeze_excite/Co
__________________________________________________________________________________________________
expanded_conv_3/squeeze_excite/ (None, 1, 1, 72)     1800        expanded_conv_3/squeeze_excite/Re
__________________________________________________________________________________________________
activation_10 (Activation)      (None, 1, 1, 72)     0           expanded_conv_3/squeeze_excite/Co
__________________________________________________________________________________________________
expanded_conv_3/squeeze_excite/ (None, 38, 38, 72)   0           activation_10[0][0]
                                                                 activation_9[0][0]
__________________________________________________________________________________________________
expanded_conv_3/project (Conv2D (None, 38, 38, 40)   2880        expanded_conv_3/squeeze_excite/Mu
__________________________________________________________________________________________________
expanded_conv_3/project/BatchNo (None, 38, 38, 40)   160         expanded_conv_3/project[0][0]
__________________________________________________________________________________________________
expanded_conv_4/expand (Conv2D) (None, 38, 38, 120)  4800        expanded_conv_3/project/BatchNorm
__________________________________________________________________________________________________
expanded_conv_4/expand/BatchNor (None, 38, 38, 120)  480         expanded_conv_4/expand[0][0]
__________________________________________________________________________________________________
activation_11 (Activation)      (None, 38, 38, 120)  0           expanded_conv_4/expand/BatchNorm[
__________________________________________________________________________________________________
expanded_conv_4/depthwise (Dept (None, 38, 38, 120)  3000        activation_11[0][0]
__________________________________________________________________________________________________
expanded_conv_4/depthwise/Batch (None, 38, 38, 120)  480         expanded_conv_4/depthwise[0][0]
__________________________________________________________________________________________________
activation_12 (Activation)      (None, 38, 38, 120)  0           expanded_conv_4/depthwise/BatchNo
__________________________________________________________________________________________________
expanded_conv_4/squeeze_excite/ (None, 120)          0           activation_12[0][0]
__________________________________________________________________________________________________
expanded_conv_4/reshape (Reshap (None, 1, 1, 120)    0           expanded_conv_4/squeeze_excite/Av
__________________________________________________________________________________________________
expanded_conv_4/squeeze_excite/ (None, 1, 1, 32)     3872        expanded_conv_4/reshape[0][0]
__________________________________________________________________________________________________
expanded_conv_4/squeeze_excite/ (None, 1, 1, 32)     0           expanded_conv_4/squeeze_excite/Co
__________________________________________________________________________________________________
expanded_conv_4/squeeze_excite/ (None, 1, 1, 120)    3960        expanded_conv_4/squeeze_excite/Re
__________________________________________________________________________________________________
activation_13 (Activation)      (None, 1, 1, 120)    0           expanded_conv_4/squeeze_excite/Co
__________________________________________________________________________________________________
expanded_conv_4/squeeze_excite/ (None, 38, 38, 120)  0           activation_13[0][0]
                                                                 activation_12[0][0]
__________________________________________________________________________________________________
expanded_conv_4/project (Conv2D (None, 38, 38, 40)   4800        expanded_conv_4/squeeze_excite/Mu
__________________________________________________________________________________________________
expanded_conv_4/project/BatchNo (None, 38, 38, 40)   160         expanded_conv_4/project[0][0]
__________________________________________________________________________________________________
expanded_conv_4/Add (Add)       (None, 38, 38, 40)   0           expanded_conv_3/project/BatchNorm
                                                                 expanded_conv_4/project/BatchNorm
__________________________________________________________________________________________________
expanded_conv_5/expand (Conv2D) (None, 38, 38, 120)  4800        expanded_conv_4/Add[0][0]
__________________________________________________________________________________________________
expanded_conv_5/expand/BatchNor (None, 38, 38, 120)  480         expanded_conv_5/expand[0][0]
__________________________________________________________________________________________________
activation_14 (Activation)      (None, 38, 38, 120)  0           expanded_conv_5/expand/BatchNorm[
__________________________________________________________________________________________________
expanded_conv_5/depthwise (Dept (None, 38, 38, 120)  3000        activation_14[0][0]
__________________________________________________________________________________________________
expanded_conv_5/depthwise/Batch (None, 38, 38, 120)  480         expanded_conv_5/depthwise[0][0]
__________________________________________________________________________________________________
activation_15 (Activation)      (None, 38, 38, 120)  0           expanded_conv_5/depthwise/BatchNo
__________________________________________________________________________________________________
expanded_conv_5/squeeze_excite/ (None, 120)          0           activation_15[0][0]
__________________________________________________________________________________________________
expanded_conv_5/reshape (Reshap (None, 1, 1, 120)    0           expanded_conv_5/squeeze_excite/Av
__________________________________________________________________________________________________
expanded_conv_5/squeeze_excite/ (None, 1, 1, 32)     3872        expanded_conv_5/reshape[0][0]
__________________________________________________________________________________________________
expanded_conv_5/squeeze_excite/ (None, 1, 1, 32)     0           expanded_conv_5/squeeze_excite/Co
__________________________________________________________________________________________________
expanded_conv_5/squeeze_excite/ (None, 1, 1, 120)    3960        expanded_conv_5/squeeze_excite/Re
__________________________________________________________________________________________________
activation_16 (Activation)      (None, 1, 1, 120)    0           expanded_conv_5/squeeze_excite/Co
__________________________________________________________________________________________________
expanded_conv_5/squeeze_excite/ (None, 38, 38, 120)  0           activation_16[0][0]
                                                                 activation_15[0][0]
__________________________________________________________________________________________________
expanded_conv_5/project (Conv2D (None, 38, 38, 40)   4800        expanded_conv_5/squeeze_excite/Mu
__________________________________________________________________________________________________
expanded_conv_5/project/BatchNo (None, 38, 38, 40)   160         expanded_conv_5/project[0][0]
__________________________________________________________________________________________________
expanded_conv_5/Add (Add)       (None, 38, 38, 40)   0           expanded_conv_4/Add[0][0]
                                                                 expanded_conv_5/project/BatchNorm
__________________________________________________________________________________________________
expanded_conv_6/expand (Conv2D) (None, 38, 38, 240)  9600        expanded_conv_5/Add[0][0]
__________________________________________________________________________________________________
expanded_conv_6/expand/BatchNor (None, 38, 38, 240)  960         expanded_conv_6/expand[0][0]
__________________________________________________________________________________________________
activation_17 (Activation)      (None, 38, 38, 240)  0           expanded_conv_6/expand/BatchNorm[
__________________________________________________________________________________________________
multiply_2 (Multiply)           (None, 38, 38, 240)  0           activation_17[0][0]
                                                                 expanded_conv_6/expand/BatchNorm[
__________________________________________________________________________________________________
expanded_conv_6/depthwise (Dept (None, 19, 19, 240)  2160        multiply_2[0][0]
__________________________________________________________________________________________________
expanded_conv_6/depthwise/Batch (None, 19, 19, 240)  960         expanded_conv_6/depthwise[0][0]
__________________________________________________________________________________________________
activation_18 (Activation)      (None, 19, 19, 240)  0           expanded_conv_6/depthwise/BatchNo
__________________________________________________________________________________________________
multiply_3 (Multiply)           (None, 19, 19, 240)  0           activation_18[0][0]
                                                                 expanded_conv_6/depthwise/BatchNo
__________________________________________________________________________________________________
expanded_conv_6/project (Conv2D (None, 19, 19, 80)   19200       multiply_3[0][0]
__________________________________________________________________________________________________
expanded_conv_6/project/BatchNo (None, 19, 19, 80)   320         expanded_conv_6/project[0][0]
__________________________________________________________________________________________________
expanded_conv_7/expand (Conv2D) (None, 19, 19, 200)  16000       expanded_conv_6/project/BatchNorm
__________________________________________________________________________________________________
expanded_conv_7/expand/BatchNor (None, 19, 19, 200)  800         expanded_conv_7/expand[0][0]
__________________________________________________________________________________________________
activation_19 (Activation)      (None, 19, 19, 200)  0           expanded_conv_7/expand/BatchNorm[
__________________________________________________________________________________________________
multiply_4 (Multiply)           (None, 19, 19, 200)  0           activation_19[0][0]
                                                                 expanded_conv_7/expand/BatchNorm[
__________________________________________________________________________________________________
expanded_conv_7/depthwise (Dept (None, 19, 19, 200)  1800        multiply_4[0][0]
__________________________________________________________________________________________________
expanded_conv_7/depthwise/Batch (None, 19, 19, 200)  800         expanded_conv_7/depthwise[0][0]
__________________________________________________________________________________________________
activation_20 (Activation)      (None, 19, 19, 200)  0           expanded_conv_7/depthwise/BatchNo
__________________________________________________________________________________________________
multiply_5 (Multiply)           (None, 19, 19, 200)  0           activation_20[0][0]
                                                                 expanded_conv_7/depthwise/BatchNo
__________________________________________________________________________________________________
expanded_conv_7/project (Conv2D (None, 19, 19, 80)   16000       multiply_5[0][0]
__________________________________________________________________________________________________
expanded_conv_7/project/BatchNo (None, 19, 19, 80)   320         expanded_conv_7/project[0][0]
__________________________________________________________________________________________________
expanded_conv_7/Add (Add)       (None, 19, 19, 80)   0           expanded_conv_6/project/BatchNorm
                                                                 expanded_conv_7/project/BatchNorm
__________________________________________________________________________________________________
expanded_conv_8/expand (Conv2D) (None, 19, 19, 184)  14720       expanded_conv_7/Add[0][0]
__________________________________________________________________________________________________
expanded_conv_8/expand/BatchNor (None, 19, 19, 184)  736         expanded_conv_8/expand[0][0]
__________________________________________________________________________________________________
activation_21 (Activation)      (None, 19, 19, 184)  0           expanded_conv_8/expand/BatchNorm[
__________________________________________________________________________________________________
multiply_6 (Multiply)           (None, 19, 19, 184)  0           activation_21[0][0]
                                                                 expanded_conv_8/expand/BatchNorm[
__________________________________________________________________________________________________
expanded_conv_8/depthwise (Dept (None, 19, 19, 184)  1656        multiply_6[0][0]
__________________________________________________________________________________________________
expanded_conv_8/depthwise/Batch (None, 19, 19, 184)  736         expanded_conv_8/depthwise[0][0]
__________________________________________________________________________________________________
activation_22 (Activation)      (None, 19, 19, 184)  0           expanded_conv_8/depthwise/BatchNo
__________________________________________________________________________________________________
multiply_7 (Multiply)           (None, 19, 19, 184)  0           activation_22[0][0]
                                                                 expanded_conv_8/depthwise/BatchNo
__________________________________________________________________________________________________
expanded_conv_8/project (Conv2D (None, 19, 19, 80)   14720       multiply_7[0][0]
__________________________________________________________________________________________________
expanded_conv_8/project/BatchNo (None, 19, 19, 80)   320         expanded_conv_8/project[0][0]
__________________________________________________________________________________________________
expanded_conv_8/Add (Add)       (None, 19, 19, 80)   0           expanded_conv_7/Add[0][0]
                                                                 expanded_conv_8/project/BatchNorm
__________________________________________________________________________________________________
expanded_conv_9/expand (Conv2D) (None, 19, 19, 184)  14720       expanded_conv_8/Add[0][0]
__________________________________________________________________________________________________
expanded_conv_9/expand/BatchNor (None, 19, 19, 184)  736         expanded_conv_9/expand[0][0]
__________________________________________________________________________________________________
activation_23 (Activation)      (None, 19, 19, 184)  0           expanded_conv_9/expand/BatchNorm[
__________________________________________________________________________________________________
multiply_8 (Multiply)           (None, 19, 19, 184)  0           activation_23[0][0]
                                                                 expanded_conv_9/expand/BatchNorm[
__________________________________________________________________________________________________
expanded_conv_9/depthwise (Dept (None, 19, 19, 184)  1656        multiply_8[0][0]
__________________________________________________________________________________________________
expanded_conv_9/depthwise/Batch (None, 19, 19, 184)  736         expanded_conv_9/depthwise[0][0]
__________________________________________________________________________________________________
activation_24 (Activation)      (None, 19, 19, 184)  0           expanded_conv_9/depthwise/BatchNo
__________________________________________________________________________________________________
multiply_9 (Multiply)           (None, 19, 19, 184)  0           activation_24[0][0]
                                                                 expanded_conv_9/depthwise/BatchNo
__________________________________________________________________________________________________
expanded_conv_9/project (Conv2D (None, 19, 19, 80)   14720       multiply_9[0][0]
__________________________________________________________________________________________________
expanded_conv_9/project/BatchNo (None, 19, 19, 80)   320         expanded_conv_9/project[0][0]
__________________________________________________________________________________________________
expanded_conv_9/Add (Add)       (None, 19, 19, 80)   0           expanded_conv_8/Add[0][0]
                                                                 expanded_conv_9/project/BatchNorm
__________________________________________________________________________________________________
expanded_conv_10/expand (Conv2D (None, 19, 19, 480)  38400       expanded_conv_9/Add[0][0]
__________________________________________________________________________________________________
expanded_conv_10/expand/BatchNo (None, 19, 19, 480)  1920        expanded_conv_10/expand[0][0]
__________________________________________________________________________________________________
activation_25 (Activation)      (None, 19, 19, 480)  0           expanded_conv_10/expand/BatchNorm
__________________________________________________________________________________________________
multiply_10 (Multiply)          (None, 19, 19, 480)  0           activation_25[0][0]
                                                                 expanded_conv_10/expand/BatchNorm
__________________________________________________________________________________________________
expanded_conv_10/depthwise (Dep (None, 19, 19, 480)  4320        multiply_10[0][0]
__________________________________________________________________________________________________
expanded_conv_10/depthwise/Batc (None, 19, 19, 480)  1920        expanded_conv_10/depthwise[0][0]
__________________________________________________________________________________________________
activation_26 (Activation)      (None, 19, 19, 480)  0           expanded_conv_10/depthwise/BatchN
__________________________________________________________________________________________________
multiply_11 (Multiply)          (None, 19, 19, 480)  0           activation_26[0][0]
                                                                 expanded_conv_10/depthwise/BatchN
__________________________________________________________________________________________________
expanded_conv_10/squeeze_excite (None, 480)          0           multiply_11[0][0]
__________________________________________________________________________________________________
expanded_conv_10/reshape (Resha (None, 1, 1, 480)    0           expanded_conv_10/squeeze_excite/A
__________________________________________________________________________________________________
expanded_conv_10/squeeze_excite (None, 1, 1, 120)    57720       expanded_conv_10/reshape[0][0]
__________________________________________________________________________________________________
expanded_conv_10/squeeze_excite (None, 1, 1, 120)    0           expanded_conv_10/squeeze_excite/C
__________________________________________________________________________________________________
expanded_conv_10/squeeze_excite (None, 1, 1, 480)    58080       expanded_conv_10/squeeze_excite/R
__________________________________________________________________________________________________
activation_27 (Activation)      (None, 1, 1, 480)    0           expanded_conv_10/squeeze_excite/C
__________________________________________________________________________________________________
expanded_conv_10/squeeze_excite (None, 19, 19, 480)  0           activation_27[0][0]
                                                                 multiply_11[0][0]
__________________________________________________________________________________________________
expanded_conv_10/project (Conv2 (None, 19, 19, 112)  53760       expanded_conv_10/squeeze_excite/M
__________________________________________________________________________________________________
expanded_conv_10/project/BatchN (None, 19, 19, 112)  448         expanded_conv_10/project[0][0]
__________________________________________________________________________________________________
expanded_conv_11/expand (Conv2D (None, 19, 19, 672)  75264       expanded_conv_10/project/BatchNor
__________________________________________________________________________________________________
expanded_conv_11/expand/BatchNo (None, 19, 19, 672)  2688        expanded_conv_11/expand[0][0]
__________________________________________________________________________________________________
activation_28 (Activation)      (None, 19, 19, 672)  0           expanded_conv_11/expand/BatchNorm
__________________________________________________________________________________________________
multiply_12 (Multiply)          (None, 19, 19, 672)  0           activation_28[0][0]
                                                                 expanded_conv_11/expand/BatchNorm
__________________________________________________________________________________________________
expanded_conv_11/depthwise (Dep (None, 19, 19, 672)  6048        multiply_12[0][0]
__________________________________________________________________________________________________
expanded_conv_11/depthwise/Batc (None, 19, 19, 672)  2688        expanded_conv_11/depthwise[0][0]
__________________________________________________________________________________________________
activation_29 (Activation)      (None, 19, 19, 672)  0           expanded_conv_11/depthwise/BatchN
__________________________________________________________________________________________________
multiply_13 (Multiply)          (None, 19, 19, 672)  0           activation_29[0][0]
                                                                 expanded_conv_11/depthwise/BatchN
__________________________________________________________________________________________________
expanded_conv_11/squeeze_excite (None, 672)          0           multiply_13[0][0]
__________________________________________________________________________________________________
expanded_conv_11/reshape (Resha (None, 1, 1, 672)    0           expanded_conv_11/squeeze_excite/A
__________________________________________________________________________________________________
expanded_conv_11/squeeze_excite (None, 1, 1, 168)    113064      expanded_conv_11/reshape[0][0]
__________________________________________________________________________________________________
expanded_conv_11/squeeze_excite (None, 1, 1, 168)    0           expanded_conv_11/squeeze_excite/C
__________________________________________________________________________________________________
expanded_conv_11/squeeze_excite (None, 1, 1, 672)    113568      expanded_conv_11/squeeze_excite/R
__________________________________________________________________________________________________
activation_30 (Activation)      (None, 1, 1, 672)    0           expanded_conv_11/squeeze_excite/C
__________________________________________________________________________________________________
expanded_conv_11/squeeze_excite (None, 19, 19, 672)  0           activation_30[0][0]
                                                                 multiply_13[0][0]
__________________________________________________________________________________________________
expanded_conv_11/project (Conv2 (None, 19, 19, 112)  75264       expanded_conv_11/squeeze_excite/M
__________________________________________________________________________________________________
expanded_conv_11/project/BatchN (None, 19, 19, 112)  448         expanded_conv_11/project[0][0]
__________________________________________________________________________________________________
expanded_conv_11/Add (Add)      (None, 19, 19, 112)  0           expanded_conv_10/project/BatchNor
                                                                 expanded_conv_11/project/BatchNor
__________________________________________________________________________________________________
expanded_conv_12/expand (Conv2D (None, 19, 19, 672)  75264       expanded_conv_11/Add[0][0]
__________________________________________________________________________________________________
expanded_conv_12/expand/BatchNo (None, 19, 19, 672)  2688        expanded_conv_12/expand[0][0]
__________________________________________________________________________________________________
activation_31 (Activation)      (None, 19, 19, 672)  0           expanded_conv_12/expand/BatchNorm
__________________________________________________________________________________________________
multiply_14 (Multiply)          (None, 19, 19, 672)  0           activation_31[0][0]
                                                                 expanded_conv_12/expand/BatchNorm
__________________________________________________________________________________________________
expanded_conv_12/depthwise (Dep (None, 10, 10, 672)  16800       multiply_14[0][0]
__________________________________________________________________________________________________
expanded_conv_12/depthwise/Batc (None, 10, 10, 672)  2688        expanded_conv_12/depthwise[0][0]
__________________________________________________________________________________________________
activation_32 (Activation)      (None, 10, 10, 672)  0           expanded_conv_12/depthwise/BatchN
__________________________________________________________________________________________________
multiply_15 (Multiply)          (None, 10, 10, 672)  0           activation_32[0][0]
                                                                 expanded_conv_12/depthwise/BatchN
__________________________________________________________________________________________________
expanded_conv_12/squeeze_excite (None, 672)          0           multiply_15[0][0]
__________________________________________________________________________________________________
expanded_conv_12/reshape (Resha (None, 1, 1, 672)    0           expanded_conv_12/squeeze_excite/A
__________________________________________________________________________________________________
expanded_conv_12/squeeze_excite (None, 1, 1, 168)    113064      expanded_conv_12/reshape[0][0]
__________________________________________________________________________________________________
expanded_conv_12/squeeze_excite (None, 1, 1, 168)    0           expanded_conv_12/squeeze_excite/C
__________________________________________________________________________________________________
expanded_conv_12/squeeze_excite (None, 1, 1, 672)    113568      expanded_conv_12/squeeze_excite/R
__________________________________________________________________________________________________
activation_33 (Activation)      (None, 1, 1, 672)    0           expanded_conv_12/squeeze_excite/C
__________________________________________________________________________________________________
expanded_conv_12/squeeze_excite (None, 10, 10, 672)  0           activation_33[0][0]
                                                                 multiply_15[0][0]
__________________________________________________________________________________________________
expanded_conv_12/project (Conv2 (None, 10, 10, 80)   53760       expanded_conv_12/squeeze_excite/M
__________________________________________________________________________________________________
expanded_conv_12/project/BatchN (None, 10, 10, 80)   320         expanded_conv_12/project[0][0]
__________________________________________________________________________________________________
expanded_conv_13/expand (Conv2D (None, 10, 10, 480)  38400       expanded_conv_12/project/BatchNor
__________________________________________________________________________________________________
expanded_conv_13/expand/BatchNo (None, 10, 10, 480)  1920        expanded_conv_13/expand[0][0]
__________________________________________________________________________________________________
activation_47 (Activation)      (None, 10, 10, 480)  0           expanded_conv_13/expand/BatchNorm
__________________________________________________________________________________________________
multiply_16 (Multiply)          (None, 10, 10, 480)  0           activation_47[0][0]
                                                                 expanded_conv_13/expand/BatchNorm
__________________________________________________________________________________________________
expanded_conv_13/depthwise (Dep (None, 10, 10, 480)  12000       multiply_16[0][0]
__________________________________________________________________________________________________
expanded_conv_13/depthwise/Batc (None, 10, 10, 480)  1920        expanded_conv_13/depthwise[0][0]
__________________________________________________________________________________________________
activation_48 (Activation)      (None, 10, 10, 480)  0           expanded_conv_13/depthwise/BatchN
__________________________________________________________________________________________________
multiply_17 (Multiply)          (None, 10, 10, 480)  0           activation_48[0][0]
                                                                 expanded_conv_13/depthwise/BatchN
__________________________________________________________________________________________________
expanded_conv_13/squeeze_excite (None, 480)          0           multiply_17[0][0]
__________________________________________________________________________________________________
expanded_conv_13/reshape (Resha (None, 1, 1, 480)    0           expanded_conv_13/squeeze_excite/A
__________________________________________________________________________________________________
expanded_conv_13/squeeze_excite (None, 1, 1, 120)    57720       expanded_conv_13/reshape[0][0]
__________________________________________________________________________________________________
expanded_conv_13/squeeze_excite (None, 1, 1, 120)    0           expanded_conv_13/squeeze_excite/C
__________________________________________________________________________________________________
expanded_conv_13/squeeze_excite (None, 1, 1, 480)    58080       expanded_conv_13/squeeze_excite/R
__________________________________________________________________________________________________
activation_49 (Activation)      (None, 1, 1, 480)    0           expanded_conv_13/squeeze_excite/C
__________________________________________________________________________________________________
expanded_conv_13/squeeze_excite (None, 10, 10, 480)  0           activation_49[0][0]
                                                                 multiply_17[0][0]
__________________________________________________________________________________________________
expanded_conv_13/project (Conv2 (None, 10, 10, 80)   38400       expanded_conv_13/squeeze_excite/M
__________________________________________________________________________________________________
expanded_conv_13/project/BatchN (None, 10, 10, 80)   320         expanded_conv_13/project[0][0]
__________________________________________________________________________________________________
expanded_conv_13/Add (Add)      (None, 10, 10, 80)   0           expanded_conv_12/project/BatchNor
                                                                 expanded_conv_13/project/BatchNor
__________________________________________________________________________________________________
expanded_conv_14/expand (Conv2D (None, 10, 10, 480)  38400       expanded_conv_13/Add[0][0]
__________________________________________________________________________________________________
expanded_conv_14/expand/BatchNo (None, 10, 10, 480)  1920        expanded_conv_14/expand[0][0]
__________________________________________________________________________________________________
activation_50 (Activation)      (None, 10, 10, 480)  0           expanded_conv_14/expand/BatchNorm
__________________________________________________________________________________________________
multiply_18 (Multiply)          (None, 10, 10, 480)  0           activation_50[0][0]
                                                                 expanded_conv_14/expand/BatchNorm
__________________________________________________________________________________________________
expanded_conv_14/depthwise (Dep (None, 10, 10, 480)  12000       multiply_18[0][0]
__________________________________________________________________________________________________
expanded_conv_14/depthwise/Batc (None, 10, 10, 480)  1920        expanded_conv_14/depthwise[0][0]
__________________________________________________________________________________________________
activation_51 (Activation)      (None, 10, 10, 480)  0           expanded_conv_14/depthwise/BatchN
__________________________________________________________________________________________________
multiply_19 (Multiply)          (None, 10, 10, 480)  0           activation_51[0][0]
                                                                 expanded_conv_14/depthwise/BatchN
__________________________________________________________________________________________________
expanded_conv_14/squeeze_excite (None, 480)          0           multiply_19[0][0]
__________________________________________________________________________________________________
expanded_conv_14/reshape (Resha (None, 1, 1, 480)    0           expanded_conv_14/squeeze_excite/A
__________________________________________________________________________________________________
expanded_conv_14/squeeze_excite (None, 1, 1, 120)    57720       expanded_conv_14/reshape[0][0]
__________________________________________________________________________________________________
expanded_conv_14/squeeze_excite (None, 1, 1, 120)    0           expanded_conv_14/squeeze_excite/C
__________________________________________________________________________________________________
expanded_conv_14/squeeze_excite (None, 1, 1, 480)    58080       expanded_conv_14/squeeze_excite/R
__________________________________________________________________________________________________
activation_52 (Activation)      (None, 1, 1, 480)    0           expanded_conv_14/squeeze_excite/C
__________________________________________________________________________________________________
expanded_conv_14/squeeze_excite (None, 10, 10, 480)  0           activation_52[0][0]
                                                                 multiply_19[0][0]
__________________________________________________________________________________________________
expanded_conv_14/project (Conv2 (None, 10, 10, 80)   38400       expanded_conv_14/squeeze_excite/M
__________________________________________________________________________________________________
expanded_conv_14/project/BatchN (None, 10, 10, 80)   320         expanded_conv_14/project[0][0]
__________________________________________________________________________________________________
expanded_conv_14/Add (Add)      (None, 10, 10, 80)   0           expanded_conv_13/Add[0][0]
                                                                 expanded_conv_14/project/BatchNor
__________________________________________________________________________________________________
conv2d_10 (Conv2D)              (None, 10, 10, 960)  77760       expanded_conv_14/Add[0][0]
__________________________________________________________________________________________________
batch_normalization_14 (BatchNo (None, 10, 10, 960)  3840        conv2d_10[0][0]
__________________________________________________________________________________________________
activation_53 (Activation)      (None, 10, 10, 960)  0           batch_normalization_14[0][0]
__________________________________________________________________________________________________
multiply_20 (Multiply)          (None, 10, 10, 960)  0           activation_53[0][0]
                                                                 batch_normalization_14[0][0]
__________________________________________________________________________________________________
conv2d_11 (Conv2D)              (None, 10, 10, 120)  115200      multiply_20[0][0]
__________________________________________________________________________________________________
conv2d_14 (Conv2D)              (None, 10, 10, 120)  115200      multiply_20[0][0]
__________________________________________________________________________________________________
batch_normalization_15 (BatchNo (None, 10, 10, 120)  480         conv2d_11[0][0]
__________________________________________________________________________________________________
batch_normalization_19 (BatchNo (None, 10, 10, 120)  480         conv2d_14[0][0]
__________________________________________________________________________________________________
activation_54 (Activation)      (None, 10, 10, 120)  0           batch_normalization_15[0][0]
__________________________________________________________________________________________________
activation_58 (Activation)      (None, 10, 10, 120)  0           batch_normalization_19[0][0]
__________________________________________________________________________________________________
conv2d_12 (Conv2D)              (None, 10, 10, 180)  64800       activation_54[0][0]
__________________________________________________________________________________________________
conv2d_15 (Conv2D)              (None, 10, 10, 180)  194400      activation_58[0][0]
__________________________________________________________________________________________________
batch_normalization_16 (BatchNo (None, 10, 10, 180)  720         conv2d_12[0][0]
__________________________________________________________________________________________________
batch_normalization_20 (BatchNo (None, 10, 10, 180)  720         conv2d_15[0][0]
__________________________________________________________________________________________________
activation_55 (Activation)      (None, 10, 10, 180)  0           batch_normalization_16[0][0]
__________________________________________________________________________________________________
activation_59 (Activation)      (None, 10, 10, 180)  0           batch_normalization_20[0][0]
__________________________________________________________________________________________________
conv2d_13 (Conv2D)              (None, 5, 5, 180)    97200       activation_55[0][0]
__________________________________________________________________________________________________
conv2d_16 (Conv2D)              (None, 5, 5, 180)    291600      activation_59[0][0]
__________________________________________________________________________________________________
batch_normalization_17 (BatchNo (None, 5, 5, 180)    720         conv2d_13[0][0]
__________________________________________________________________________________________________
batch_normalization_21 (BatchNo (None, 5, 5, 180)    720         conv2d_16[0][0]
__________________________________________________________________________________________________
activation_56 (Activation)      (None, 5, 5, 180)    0           batch_normalization_17[0][0]
__________________________________________________________________________________________________
activation_60 (Activation)      (None, 5, 5, 180)    0           batch_normalization_21[0][0]
__________________________________________________________________________________________________
depthwise_conv2d_5 (DepthwiseCo (None, 5, 5, 180)    1620        activation_56[0][0]
__________________________________________________________________________________________________
depthwise_conv2d_6 (DepthwiseCo (None, 5, 5, 180)    1620        activation_60[0][0]
__________________________________________________________________________________________________
batch_normalization_18 (BatchNo (None, 5, 5, 180)    720         depthwise_conv2d_5[0][0]
__________________________________________________________________________________________________
batch_normalization_22 (BatchNo (None, 5, 5, 180)    720         depthwise_conv2d_6[0][0]
__________________________________________________________________________________________________
activation_57 (Activation)      (None, 5, 5, 180)    0           batch_normalization_18[0][0]
__________________________________________________________________________________________________
activation_61 (Activation)      (None, 5, 5, 180)    0           batch_normalization_22[0][0]
__________________________________________________________________________________________________
concatenate_2 (Concatenate)     (None, 5, 5, 360)    0           activation_57[0][0]
                                                                 activation_61[0][0]
__________________________________________________________________________________________________
conv2d_17 (Conv2D)              (None, 5, 5, 512)    184320      concatenate_2[0][0]
__________________________________________________________________________________________________
conv2d_18 (Conv2D)              (None, 5, 5, 512)    491520      multiply_20[0][0]
__________________________________________________________________________________________________
batch_normalization_23 (BatchNo (None, 5, 5, 512)    2048        conv2d_17[0][0]
__________________________________________________________________________________________________
batch_normalization_24 (BatchNo (None, 5, 5, 512)    2048        conv2d_18[0][0]
__________________________________________________________________________________________________
lambda_2 (Lambda)               (None, 5, 5, 512)    0           batch_normalization_23[0][0]
                                                                 batch_normalization_24[0][0]
__________________________________________________________________________________________________
activation_62 (Activation)      (None, 5, 5, 512)    0           lambda_2[0][0]
__________________________________________________________________________________________________
conv2d_19 (Conv2D)              (None, 5, 5, 128)    65536       activation_62[0][0]
__________________________________________________________________________________________________
batch_normalization_25 (BatchNo (None, 5, 5, 128)    512         conv2d_19[0][0]
__________________________________________________________________________________________________
activation_63 (Activation)      (None, 5, 5, 128)    0           batch_normalization_25[0][0]
__________________________________________________________________________________________________
depthwise_conv2d_7 (DepthwiseCo (None, 3, 3, 128)    1152        activation_63[0][0]
__________________________________________________________________________________________________
batch_normalization_26 (BatchNo (None, 3, 3, 128)    512         depthwise_conv2d_7[0][0]
__________________________________________________________________________________________________
activation_64 (Activation)      (None, 3, 3, 128)    0           batch_normalization_26[0][0]
__________________________________________________________________________________________________
conv2d_20 (Conv2D)              (None, 3, 3, 256)    32768       activation_64[0][0]
__________________________________________________________________________________________________
batch_normalization_27 (BatchNo (None, 3, 3, 256)    1024        conv2d_20[0][0]
__________________________________________________________________________________________________
activation_65 (Activation)      (None, 3, 3, 256)    0           batch_normalization_27[0][0]
__________________________________________________________________________________________________
conv2d_21 (Conv2D)              (None, 3, 3, 128)    32768       activation_65[0][0]
__________________________________________________________________________________________________
conv2d_6 (Conv2D)               (None, 19, 19, 84)   56448       multiply_14[0][0]
__________________________________________________________________________________________________
batch_normalization_28 (BatchNo (None, 3, 3, 128)    512         conv2d_21[0][0]
__________________________________________________________________________________________________
batch_normalization_9 (BatchNor (None, 19, 19, 84)   336         conv2d_6[0][0]
__________________________________________________________________________________________________
activation_66 (Activation)      (None, 3, 3, 128)    0           batch_normalization_28[0][0]
__________________________________________________________________________________________________
activation_42 (Activation)      (None, 19, 19, 84)   0           batch_normalization_9[0][0]
__________________________________________________________________________________________________
depthwise_conv2d_8 (DepthwiseCo (None, 2, 2, 128)    1152        activation_66[0][0]
__________________________________________________________________________________________________
conv2d_2 (Conv2D)               (None, 19, 19, 168)  112896      multiply_14[0][0]
__________________________________________________________________________________________________
conv2d_4 (Conv2D)               (None, 19, 19, 168)  112896      multiply_14[0][0]
__________________________________________________________________________________________________
conv2d_7 (Conv2D)               (None, 19, 19, 126)  31752       activation_42[0][0]
__________________________________________________________________________________________________
batch_normalization_29 (BatchNo (None, 2, 2, 128)    512         depthwise_conv2d_8[0][0]
__________________________________________________________________________________________________
batch_normalization_3 (BatchNor (None, 19, 19, 168)  672         conv2d_2[0][0]
__________________________________________________________________________________________________
batch_normalization_6 (BatchNor (None, 19, 19, 168)  672         conv2d_4[0][0]
__________________________________________________________________________________________________
batch_normalization_10 (BatchNo (None, 19, 19, 126)  504         conv2d_7[0][0]
__________________________________________________________________________________________________
activation_67 (Activation)      (None, 2, 2, 128)    0           batch_normalization_29[0][0]
__________________________________________________________________________________________________
activation_36 (Activation)      (None, 19, 19, 168)  0           batch_normalization_3[0][0]
__________________________________________________________________________________________________
activation_39 (Activation)      (None, 19, 19, 168)  0           batch_normalization_6[0][0]
__________________________________________________________________________________________________
activation_43 (Activation)      (None, 19, 19, 126)  0           batch_normalization_10[0][0]
__________________________________________________________________________________________________
conv2d_22 (Conv2D)              (None, 2, 2, 256)    32768       activation_67[0][0]
__________________________________________________________________________________________________
conv2d_1 (Conv2D)               (None, 19, 19, 168)  112896      multiply_14[0][0]
__________________________________________________________________________________________________
conv2d_3 (Conv2D)               (None, 19, 19, 168)  84672       activation_36[0][0]
__________________________________________________________________________________________________
conv2d_5 (Conv2D)               (None, 19, 19, 168)  84672       activation_39[0][0]
__________________________________________________________________________________________________
conv2d_8 (Conv2D)               (None, 19, 19, 168)  63504       activation_43[0][0]
__________________________________________________________________________________________________
batch_normalization_30 (BatchNo (None, 2, 2, 256)    1024        conv2d_22[0][0]
__________________________________________________________________________________________________
batch_normalization_1 (BatchNor (None, 19, 19, 168)  672         conv2d_1[0][0]
__________________________________________________________________________________________________
batch_normalization_4 (BatchNor (None, 19, 19, 168)  672         conv2d_3[0][0]
__________________________________________________________________________________________________
batch_normalization_7 (BatchNor (None, 19, 19, 168)  672         conv2d_5[0][0]
__________________________________________________________________________________________________
batch_normalization_11 (BatchNo (None, 19, 19, 168)  672         conv2d_8[0][0]
__________________________________________________________________________________________________
activation_68 (Activation)      (None, 2, 2, 256)    0           batch_normalization_30[0][0]
__________________________________________________________________________________________________
activation_34 (Activation)      (None, 19, 19, 168)  0           batch_normalization_1[0][0]
__________________________________________________________________________________________________
activation_37 (Activation)      (None, 19, 19, 168)  0           batch_normalization_4[0][0]
__________________________________________________________________________________________________
activation_40 (Activation)      (None, 19, 19, 168)  0           batch_normalization_7[0][0]
__________________________________________________________________________________________________
activation_44 (Activation)      (None, 19, 19, 168)  0           batch_normalization_11[0][0]
__________________________________________________________________________________________________
conv2d_23 (Conv2D)              (None, 2, 2, 64)     16384       activation_68[0][0]
__________________________________________________________________________________________________
depthwise_conv2d_1 (DepthwiseCo (None, 19, 19, 168)  1512        activation_34[0][0]
__________________________________________________________________________________________________
depthwise_conv2d_2 (DepthwiseCo (None, 19, 19, 168)  1512        activation_37[0][0]
__________________________________________________________________________________________________
depthwise_conv2d_3 (DepthwiseCo (None, 19, 19, 168)  1512        activation_40[0][0]
__________________________________________________________________________________________________
depthwise_conv2d_4 (DepthwiseCo (None, 19, 19, 168)  1512        activation_44[0][0]
__________________________________________________________________________________________________
batch_normalization_31 (BatchNo (None, 2, 2, 64)     256         conv2d_23[0][0]
__________________________________________________________________________________________________
batch_normalization_2 (BatchNor (None, 19, 19, 168)  672         depthwise_conv2d_1[0][0]
__________________________________________________________________________________________________
batch_normalization_5 (BatchNor (None, 19, 19, 168)  672         depthwise_conv2d_2[0][0]
__________________________________________________________________________________________________
batch_normalization_8 (BatchNor (None, 19, 19, 168)  672         depthwise_conv2d_3[0][0]
__________________________________________________________________________________________________
batch_normalization_12 (BatchNo (None, 19, 19, 168)  672         depthwise_conv2d_4[0][0]
__________________________________________________________________________________________________
activation_69 (Activation)      (None, 2, 2, 64)     0           batch_normalization_31[0][0]
__________________________________________________________________________________________________
activation_35 (Activation)      (None, 19, 19, 168)  0           batch_normalization_2[0][0]
__________________________________________________________________________________________________
activation_38 (Activation)      (None, 19, 19, 168)  0           batch_normalization_5[0][0]
__________________________________________________________________________________________________
activation_41 (Activation)      (None, 19, 19, 168)  0           batch_normalization_8[0][0]
__________________________________________________________________________________________________
activation_45 (Activation)      (None, 19, 19, 168)  0           batch_normalization_12[0][0]
__________________________________________________________________________________________________
depthwise_conv2d_9 (DepthwiseCo (None, 1, 1, 64)     576         activation_69[0][0]
__________________________________________________________________________________________________
concatenate_1 (Concatenate)     (None, 19, 19, 672)  0           activation_35[0][0]
                                                                 activation_38[0][0]
                                                                 activation_41[0][0]
                                                                 activation_45[0][0]
__________________________________________________________________________________________________
batch_normalization_32 (BatchNo (None, 1, 1, 64)     256         depthwise_conv2d_9[0][0]
__________________________________________________________________________________________________
conv2d_9 (Conv2D)               (None, 19, 19, 672)  451584      concatenate_1[0][0]
__________________________________________________________________________________________________
activation_70 (Activation)      (None, 1, 1, 64)     0           batch_normalization_32[0][0]
__________________________________________________________________________________________________
batch_normalization_13 (BatchNo (None, 19, 19, 672)  2688        conv2d_9[0][0]
__________________________________________________________________________________________________
conv2d_24 (Conv2D)              (None, 1, 1, 128)    8192        activation_70[0][0]
__________________________________________________________________________________________________
lambda_1 (Lambda)               (None, 19, 19, 672)  0           batch_normalization_13[0][0]
                                                                 multiply_14[0][0]
__________________________________________________________________________________________________
batch_normalization_33 (BatchNo (None, 1, 1, 128)    512         conv2d_24[0][0]
__________________________________________________________________________________________________
activation_46 (Activation)      (None, 19, 19, 672)  0           lambda_1[0][0]
__________________________________________________________________________________________________
activation_71 (Activation)      (None, 1, 1, 128)    0           batch_normalization_33[0][0]
__________________________________________________________________________________________________
conv_dw_2 (DepthwiseConv2D)     (None, 19, 19, 672)  6048        activation_46[0][0]
__________________________________________________________________________________________________
conv_dw_4 (DepthwiseConv2D)     (None, 10, 10, 960)  8640        multiply_20[0][0]
__________________________________________________________________________________________________
conv_dw_6 (DepthwiseConv2D)     (None, 5, 5, 512)    4608        activation_62[0][0]
__________________________________________________________________________________________________
conv_dw_8 (DepthwiseConv2D)     (None, 3, 3, 256)    2304        activation_65[0][0]
__________________________________________________________________________________________________
conv_dw_10 (DepthwiseConv2D)    (None, 2, 2, 256)    2304        activation_68[0][0]
__________________________________________________________________________________________________
conv_dw_12 (DepthwiseConv2D)    (None, 1, 1, 128)    1152        activation_71[0][0]
__________________________________________________________________________________________________
conv_dw_1 (DepthwiseConv2D)     (None, 19, 19, 672)  6048        activation_46[0][0]
__________________________________________________________________________________________________
conv_dw_3 (DepthwiseConv2D)     (None, 10, 10, 960)  8640        multiply_20[0][0]
__________________________________________________________________________________________________
conv_dw_5 (DepthwiseConv2D)     (None, 5, 5, 512)    4608        activation_62[0][0]
__________________________________________________________________________________________________
conv_dw_7 (DepthwiseConv2D)     (None, 3, 3, 256)    2304        activation_65[0][0]
__________________________________________________________________________________________________
conv_dw_9 (DepthwiseConv2D)     (None, 2, 2, 256)    2304        activation_68[0][0]
__________________________________________________________________________________________________
conv_dw_11 (DepthwiseConv2D)    (None, 1, 1, 128)    1152        activation_71[0][0]
__________________________________________________________________________________________________
conv_dw_2_bn (BatchNormalizatio (None, 19, 19, 672)  2688        conv_dw_2[0][0]
__________________________________________________________________________________________________
conv_dw_4_bn (BatchNormalizatio (None, 10, 10, 960)  3840        conv_dw_4[0][0]
__________________________________________________________________________________________________
conv_dw_6_bn (BatchNormalizatio (None, 5, 5, 512)    2048        conv_dw_6[0][0]
__________________________________________________________________________________________________
conv_dw_8_bn (BatchNormalizatio (None, 3, 3, 256)    1024        conv_dw_8[0][0]
__________________________________________________________________________________________________
conv_dw_10_bn (BatchNormalizati (None, 2, 2, 256)    1024        conv_dw_10[0][0]
__________________________________________________________________________________________________
conv_dw_12_bn (BatchNormalizati (None, 1, 1, 128)    512         conv_dw_12[0][0]
__________________________________________________________________________________________________
conv_dw_1_bn (BatchNormalizatio (None, 19, 19, 672)  2688        conv_dw_1[0][0]
__________________________________________________________________________________________________
conv_dw_3_bn (BatchNormalizatio (None, 10, 10, 960)  3840        conv_dw_3[0][0]
__________________________________________________________________________________________________
conv_dw_5_bn (BatchNormalizatio (None, 5, 5, 512)    2048        conv_dw_5[0][0]
__________________________________________________________________________________________________
conv_dw_7_bn (BatchNormalizatio (None, 3, 3, 256)    1024        conv_dw_7[0][0]
__________________________________________________________________________________________________
conv_dw_9_bn (BatchNormalizatio (None, 2, 2, 256)    1024        conv_dw_9[0][0]
__________________________________________________________________________________________________
conv_dw_11_bn (BatchNormalizati (None, 1, 1, 128)    512         conv_dw_11[0][0]
__________________________________________________________________________________________________
conv_dw_2_relu (Activation)     (None, 19, 19, 672)  0           conv_dw_2_bn[0][0]
__________________________________________________________________________________________________
conv_dw_4_relu (Activation)     (None, 10, 10, 960)  0           conv_dw_4_bn[0][0]
__________________________________________________________________________________________________
conv_dw_6_relu (Activation)     (None, 5, 5, 512)    0           conv_dw_6_bn[0][0]
__________________________________________________________________________________________________
conv_dw_8_relu (Activation)     (None, 3, 3, 256)    0           conv_dw_8_bn[0][0]
__________________________________________________________________________________________________
conv_dw_10_relu (Activation)    (None, 2, 2, 256)    0           conv_dw_10_bn[0][0]
__________________________________________________________________________________________________
conv_dw_12_relu (Activation)    (None, 1, 1, 128)    0           conv_dw_12_bn[0][0]
__________________________________________________________________________________________________
conv_dw_1_relu (Activation)     (None, 19, 19, 672)  0           conv_dw_1_bn[0][0]
__________________________________________________________________________________________________
conv_dw_3_relu (Activation)     (None, 10, 10, 960)  0           conv_dw_3_bn[0][0]
__________________________________________________________________________________________________
conv_dw_5_relu (Activation)     (None, 5, 5, 512)    0           conv_dw_5_bn[0][0]
__________________________________________________________________________________________________
conv_dw_7_relu (Activation)     (None, 3, 3, 256)    0           conv_dw_7_bn[0][0]
__________________________________________________________________________________________________
conv_dw_9_relu (Activation)     (None, 2, 2, 256)    0           conv_dw_9_bn[0][0]
__________________________________________________________________________________________________
conv_dw_11_relu (Activation)    (None, 1, 1, 128)    0           conv_dw_11_bn[0][0]
__________________________________________________________________________________________________
conv_pw_2 (Conv2D)              (None, 19, 19, 126)  84672       conv_dw_2_relu[0][0]
__________________________________________________________________________________________________
conv_pw_4 (Conv2D)              (None, 10, 10, 126)  120960      conv_dw_4_relu[0][0]
__________________________________________________________________________________________________
conv_pw_6 (Conv2D)              (None, 5, 5, 126)    64512       conv_dw_6_relu[0][0]
__________________________________________________________________________________________________
conv_pw_8 (Conv2D)              (None, 3, 3, 126)    32256       conv_dw_8_relu[0][0]
__________________________________________________________________________________________________
conv_pw_10 (Conv2D)             (None, 2, 2, 126)    32256       conv_dw_10_relu[0][0]
__________________________________________________________________________________________________
conv_pw_12 (Conv2D)             (None, 1, 1, 126)    16128       conv_dw_12_relu[0][0]
__________________________________________________________________________________________________
conv_pw_1 (Conv2D)              (None, 19, 19, 24)   16128       conv_dw_1_relu[0][0]
__________________________________________________________________________________________________
conv_pw_3 (Conv2D)              (None, 10, 10, 24)   23040       conv_dw_3_relu[0][0]
__________________________________________________________________________________________________
conv_pw_5 (Conv2D)              (None, 5, 5, 24)     12288       conv_dw_5_relu[0][0]
__________________________________________________________________________________________________
conv_pw_7 (Conv2D)              (None, 3, 3, 24)     6144        conv_dw_7_relu[0][0]
__________________________________________________________________________________________________
conv_pw_9 (Conv2D)              (None, 2, 2, 24)     6144        conv_dw_9_relu[0][0]
__________________________________________________________________________________________________
conv_pw_11 (Conv2D)             (None, 1, 1, 24)     3072        conv_dw_11_relu[0][0]
__________________________________________________________________________________________________
conv_pw_2_bn (BatchNormalizatio (None, 19, 19, 126)  504         conv_pw_2[0][0]
__________________________________________________________________________________________________
conv_pw_4_bn (BatchNormalizatio (None, 10, 10, 126)  504         conv_pw_4[0][0]
__________________________________________________________________________________________________
conv_pw_6_bn (BatchNormalizatio (None, 5, 5, 126)    504         conv_pw_6[0][0]
__________________________________________________________________________________________________
conv_pw_8_bn (BatchNormalizatio (None, 3, 3, 126)    504         conv_pw_8[0][0]
__________________________________________________________________________________________________
conv_pw_10_bn (BatchNormalizati (None, 2, 2, 126)    504         conv_pw_10[0][0]
__________________________________________________________________________________________________
conv_pw_12_bn (BatchNormalizati (None, 1, 1, 126)    504         conv_pw_12[0][0]
__________________________________________________________________________________________________
conv_pw_1_bn (BatchNormalizatio (None, 19, 19, 24)   96          conv_pw_1[0][0]
__________________________________________________________________________________________________
conv_pw_3_bn (BatchNormalizatio (None, 10, 10, 24)   96          conv_pw_3[0][0]
__________________________________________________________________________________________________
conv_pw_5_bn (BatchNormalizatio (None, 5, 5, 24)     96          conv_pw_5[0][0]
__________________________________________________________________________________________________
conv_pw_7_bn (BatchNormalizatio (None, 3, 3, 24)     96          conv_pw_7[0][0]
__________________________________________________________________________________________________
conv_pw_9_bn (BatchNormalizatio (None, 2, 2, 24)     96          conv_pw_9[0][0]
__________________________________________________________________________________________________
conv_pw_11_bn (BatchNormalizati (None, 1, 1, 24)     96          conv_pw_11[0][0]
__________________________________________________________________________________________________
norm_mbox_conf_flat (Flatten)   (None, 45486)        0           conv_pw_2_bn[0][0]
__________________________________________________________________________________________________
fc7_mbox_conf_flat (Flatten)    (None, 12600)        0           conv_pw_4_bn[0][0]
__________________________________________________________________________________________________
conv6_2_mbox_conf_flat (Flatten (None, 3150)         0           conv_pw_6_bn[0][0]
__________________________________________________________________________________________________
conv7_2_mbox_conf_flat (Flatten (None, 1134)         0           conv_pw_8_bn[0][0]
__________________________________________________________________________________________________
conv8_2_mbox_conf_flat (Flatten (None, 504)          0           conv_pw_10_bn[0][0]
__________________________________________________________________________________________________
conv9_2_mbox_conf_flat (Flatten (None, 126)          0           conv_pw_12_bn[0][0]
__________________________________________________________________________________________________
norm_mbox_loc_flat (Flatten)    (None, 8664)         0           conv_pw_1_bn[0][0]
__________________________________________________________________________________________________
fc7_mbox_loc_flat (Flatten)     (None, 2400)         0           conv_pw_3_bn[0][0]
__________________________________________________________________________________________________
conv6_2_mbox_loc_flat (Flatten) (None, 600)          0           conv_pw_5_bn[0][0]
__________________________________________________________________________________________________
conv7_2_mbox_loc_flat (Flatten) (None, 216)          0           conv_pw_7_bn[0][0]
__________________________________________________________________________________________________
conv8_2_mbox_loc_flat (Flatten) (None, 96)           0           conv_pw_9_bn[0][0]
__________________________________________________________________________________________________
conv9_2_mbox_loc_flat (Flatten) (None, 24)           0           conv_pw_11_bn[0][0]
__________________________________________________________________________________________________
mbox_conf (Concatenate)         (None, 63000)        0           norm_mbox_conf_flat[0][0]
                                                                 fc7_mbox_conf_flat[0][0]
                                                                 conv6_2_mbox_conf_flat[0][0]
                                                                 conv7_2_mbox_conf_flat[0][0]
                                                                 conv8_2_mbox_conf_flat[0][0]
                                                                 conv9_2_mbox_conf_flat[0][0]
__________________________________________________________________________________________________
mbox_loc (Concatenate)          (None, 12000)        0           norm_mbox_loc_flat[0][0]
                                                                 fc7_mbox_loc_flat[0][0]
                                                                 conv6_2_mbox_loc_flat[0][0]
                                                                 conv7_2_mbox_loc_flat[0][0]
                                                                 conv8_2_mbox_loc_flat[0][0]
                                                                 conv9_2_mbox_loc_flat[0][0]
__________________________________________________________________________________________________
mbox_conf_logits (Reshape)      (None, 3000, 21)     0           mbox_conf[0][0]
__________________________________________________________________________________________________
norm_mbox_priorbox (PriorBox)   (None, 2166, 8)      0           activation_46[0][0]
__________________________________________________________________________________________________
fc7_mbox_priorbox (PriorBox)    (None, 600, 8)       0           multiply_20[0][0]
__________________________________________________________________________________________________
conv6_2_mbox_priorbox (PriorBox (None, 150, 8)       0           activation_62[0][0]
__________________________________________________________________________________________________
conv7_2_mbox_priorbox (PriorBox (None, 54, 8)        0           activation_65[0][0]
__________________________________________________________________________________________________
conv8_2_mbox_priorbox (PriorBox (None, 24, 8)        0           activation_68[0][0]
__________________________________________________________________________________________________
conv9_2_mbox_priorbox (PriorBox (None, 6, 8)         0           activation_71[0][0]
__________________________________________________________________________________________________
mbox_loc_final (Reshape)        (None, 3000, 4)      0           mbox_loc[0][0]
__________________________________________________________________________________________________
mbox_conf_final (Activation)    (None, 3000, 21)     0           mbox_conf_logits[0][0]
__________________________________________________________________________________________________
mbox_priorbox (Concatenate)     (None, 3000, 8)      0           norm_mbox_priorbox[0][0]
                                                                 fc7_mbox_priorbox[0][0]
                                                                 conv6_2_mbox_priorbox[0][0]
                                                                 conv7_2_mbox_priorbox[0][0]
                                                                 conv8_2_mbox_priorbox[0][0]
                                                                 conv9_2_mbox_priorbox[0][0]
__________________________________________________________________________________________________
predictions (Concatenate)       (None, 3000, 33)     0           mbox_loc_final[0][0]
                                                                 mbox_conf_final[0][0]
                                                                 mbox_priorbox[0][0]
==================================================================================================
Total params: 5,065,384
Trainable params: 5,019,996
Non-trainable params: 45,388
_________
…
